…
+-----------------+----------------------+
|     Testing     |        False         |
+-----------------+----------------------+
|     Epochs      |         500          |
+-----------------+----------------------+
|   Batch Size    |         128          |
+-----------------+----------------------+
|  Learning Rate  |         0.01         |
+-----------------+----------------------+
|  LR Milestones  |        [450]         |
+-----------------+----------------------+
==> Preparing data..
Files already downloaded and verified
Files already downloaded and verified
Regular net
Conv_Net(
  (act): ReLU()
  (V): Conv2d(3, 32, kernel_size=(8, 8), stride=(1, 1), padding=(3, 3))
  (P): MaxPool2d(kernel_size=4, stride=4, padding=2, dilation=1, ceil_mode=False)
  (W): ModuleList(
    (0): Conv2d(32, 32, kernel_size=(3, 3), stride=(1, 1), padding=(1, 1))
    (1): Conv2d(32, 32, kernel_size=(3, 3), stride=(1, 1), padding=(1, 1))
    (2): Conv2d(32, 32, kernel_size=(3, 3), stride=(1, 1), padding=(1, 1))
    (3): Conv2d(32, 32, kernel_size=(3, 3), stride=(1, 1), padding=(1, 1))
    (4): Conv2d(32, 32, kernel_size=(3, 3), stride=(1, 1), padding=(1, 1))
    (5): Conv2d(32, 32, kernel_size=(3, 3), stride=(1, 1), padding=(1, 1))
    (6): Conv2d(32, 32, kernel_size=(3, 3), stride=(1, 1), padding=(1, 1))
    (7): Conv2d(32, 32, kernel_size=(3, 3), stride=(1, 1), padding=(1, 1))
    (8): Conv2d(32, 32, kernel_size=(3, 3), stride=(1, 1), padding=(1, 1))
    (9): Conv2d(32, 32, kernel_size=(3, 3), stride=(1, 1), padding=(1, 1))
    (10): Conv2d(32, 32, kernel_size=(3, 3), stride=(1, 1), padding=(1, 1))
    (11): Conv2d(32, 32, kernel_size=(3, 3), stride=(1, 1), padding=(1, 1))
    (12): Conv2d(32, 32, kernel_size=(3, 3), stride=(1, 1), padding=(1, 1))
    (13): Conv2d(32, 32, kernel_size=(3, 3), stride=(1, 1), padding=(1, 1))
    (14): Conv2d(32, 32, kernel_size=(3, 3), stride=(1, 1), padding=(1, 1))
    (15): Conv2d(32, 32, kernel_size=(3, 3), stride=(1, 1), padding=(1, 1))
  )
  (C): Linear(in_features=2048, out_features=10, bias=True)
)


		Parameters: 0.174634M
Current set up
Testing  False
[ALERT]: Path to results (this may overwrite ../results/dicts/single_non_recursive/Results_Single_BN.pkl
[ALERT]: Path to checkpoint (this may overwrite ./checkpoint/ckpt_non_rec_BN.t7
Do you want to continue? [Y/n]: [OK]: Starting Training of Single Model

Epoch: 0
Train :: Loss: 1.72 | Accu: 29.22
…
