…
+-----------------+----------------------+
|  Learning Rate  |         0.01         |
+-----------------+----------------------+
|  LR Milestones  |        [550]         |
+-----------------+----------------------+
|     Layers      |          32          |
+-----------------+----------------------+
|     Filters     |          21          |
+-----------------+----------------------+
|    BatchNorm    |        False         |
+-----------------+----------------------+
==> Preparing data..
Files already downloaded and verified
Files already downloaded and verified
Non Recursive ConvNet
Conv_Net(
  (act): ReLU()
  (V): Conv2d(3, 21, kernel_size=(8, 8), stride=(1, 1), padding=(3, 3))
  (P): MaxPool2d(kernel_size=4, stride=4, padding=2, dilation=1, ceil_mode=False)
  (W): ModuleList(
    (0): Conv2d(21, 21, kernel_size=(3, 3), stride=(1, 1), padding=(1, 1))
    (1): Conv2d(21, 21, kernel_size=(3, 3), stride=(1, 1), padding=(1, 1))
    (2): Conv2d(21, 21, kernel_size=(3, 3), stride=(1, 1), padding=(1, 1))
    (3): Conv2d(21, 21, kernel_size=(3, 3), stride=(1, 1), padding=(1, 1))
    (4): Conv2d(21, 21, kernel_size=(3, 3), stride=(1, 1), padding=(1, 1))
    (5): Conv2d(21, 21, kernel_size=(3, 3), stride=(1, 1), padding=(1, 1))
    (6): Conv2d(21, 21, kernel_size=(3, 3), stride=(1, 1), padding=(1, 1))
    (7): Conv2d(21, 21, kernel_size=(3, 3), stride=(1, 1), padding=(1, 1))
    (8): Conv2d(21, 21, kernel_size=(3, 3), stride=(1, 1), padding=(1, 1))
    (9): Conv2d(21, 21, kernel_size=(3, 3), stride=(1, 1), padding=(1, 1))
    (10): Conv2d(21, 21, kernel_size=(3, 3), stride=(1, 1), padding=(1, 1))
    (11): Conv2d(21, 21, kernel_size=(3, 3), stride=(1, 1), padding=(1, 1))
    (12): Conv2d(21, 21, kernel_size=(3, 3), stride=(1, 1), padding=(1, 1))
    (13): Conv2d(21, 21, kernel_size=(3, 3), stride=(1, 1), padding=(1, 1))
    (14): Conv2d(21, 21, kernel_size=(3, 3), stride=(1, 1), padding=(1, 1))
    (15): Conv2d(21, 21, kernel_size=(3, 3), stride=(1, 1), padding=(1, 1))
    (16): Conv2d(21, 21, kernel_size=(3, 3), stride=(1, 1), padding=(1, 1))
    (17): Conv2d(21, 21, kernel_size=(3, 3), stride=(1, 1), padding=(1, 1))
    (18): Conv2d(21, 21, kernel_size=(3, 3), stride=(1, 1), padding=(1, 1))
    (19): Conv2d(21, 21, kernel_size=(3, 3), stride=(1, 1), padding=(1, 1))
    (20): Conv2d(21, 21, kernel_size=(3, 3), stride=(1, 1), padding=(1, 1))
    (21): Conv2d(21, 21, kernel_size=(3, 3), stride=(1, 1), padding=(1, 1))
    (22): Conv2d(21, 21, kernel_size=(3, 3), stride=(1, 1), padding=(1, 1))
    (23): Conv2d(21, 21, kernel_size=(3, 3), stride=(1, 1), padding=(1, 1))
    (24): Conv2d(21, 21, kernel_size=(3, 3), stride=(1, 1), padding=(1, 1))
    (25): Conv2d(21, 21, kernel_size=(3, 3), stride=(1, 1), padding=(1, 1))
    (26): Conv2d(21, 21, kernel_size=(3, 3), stride=(1, 1), padding=(1, 1))
    (27): Conv2d(21, 21, kernel_size=(3, 3), stride=(1, 1), padding=(1, 1))
    (28): Conv2d(21, 21, kernel_size=(3, 3), stride=(1, 1), padding=(1, 1))
    (29): Conv2d(21, 21, kernel_size=(3, 3), stride=(1, 1), padding=(1, 1))
    (30): Conv2d(21, 21, kernel_size=(3, 3), stride=(1, 1), padding=(1, 1))
    (31): Conv2d(21, 21, kernel_size=(3, 3), stride=(1, 1), padding=(1, 1))
  )
  (C): Linear(in_features=1344, out_features=10, bias=True)
)


		Parameters: 0.145183M
==> Resuming from checkpoint..
[IMPORTANT] Don't forget to rename the results object to not overwrite!! 
Current set up
Testing  False
[ALERT]: Path to results (this may overwrite ../results/dicts/ensemble_non_recursives/Ensemble_Non_Recursive_L_32_M_21_BN_False_K_8.pkl
[ALERT]: Path to checkpoint (this may overwrite ./checkpoint/Ensemble_Non_Recursive_L_32_M_21_BN_False_K_8.t7
…
