…
+-----------------+----------------------+
|  CUDNN Enabled  |         True         |
+-----------------+----------------------+
|  Architecture   |     DenseNet x7      |
+-----------------+----------------------+
|     Dataset     |       CIFAR10        |
+-----------------+----------------------+
|     Epochs      |         200          |
+-----------------+----------------------+
|   Batch Size    |         128          |
+-----------------+----------------------+
==> Preparing data..
Files already downloaded and verified
Files already downloaded and verified
Regular net
Conv_Net(
  (act): ReLU(inplace)
  (V): Conv2d(3, 32, kernel_size=(8, 8), stride=(1, 1), padding=(3, 3))
  (P): MaxPool2d(kernel_size=4, stride=4, padding=2, dilation=1, ceil_mode=False)
  (W): ModuleList(
    (0): Conv2d(32, 32, kernel_size=(3, 3), stride=(1, 1), padding=(1, 1))
    (1): Conv2d(32, 32, kernel_size=(3, 3), stride=(1, 1), padding=(1, 1))
    (2): Conv2d(32, 32, kernel_size=(3, 3), stride=(1, 1), padding=(1, 1))
    (3): Conv2d(32, 32, kernel_size=(3, 3), stride=(1, 1), padding=(1, 1))
    (4): Conv2d(32, 32, kernel_size=(3, 3), stride=(1, 1), padding=(1, 1))
    (5): Conv2d(32, 32, kernel_size=(3, 3), stride=(1, 1), padding=(1, 1))
    (6): Conv2d(32, 32, kernel_size=(3, 3), stride=(1, 1), padding=(1, 1))
    (7): Conv2d(32, 32, kernel_size=(3, 3), stride=(1, 1), padding=(1, 1))
    (8): Conv2d(32, 32, kernel_size=(3, 3), stride=(1, 1), padding=(1, 1))
    (9): Conv2d(32, 32, kernel_size=(3, 3), stride=(1, 1), padding=(1, 1))
    (10): Conv2d(32, 32, kernel_size=(3, 3), stride=(1, 1), padding=(1, 1))
    (11): Conv2d(32, 32, kernel_size=(3, 3), stride=(1, 1), padding=(1, 1))
    (12): Conv2d(32, 32, kernel_size=(3, 3), stride=(1, 1), padding=(1, 1))
    (13): Conv2d(32, 32, kernel_size=(3, 3), stride=(1, 1), padding=(1, 1))
    (14): Conv2d(32, 32, kernel_size=(3, 3), stride=(1, 1), padding=(1, 1))
    (15): Conv2d(32, 32, kernel_size=(3, 3), stride=(1, 1), padding=(1, 1))
  )
  (fc): Linear(in_features=2048, out_features=10, bias=True)
)


		Parameters: 0.174634M
[OK]: Starting Training of Single Model

Epoch: 0
Train :: Loss: 2.3 | Accy: 10.19
Valid :: Loss: 2.3 | Accy: 9.62
Saving..
'run_epoch'  1040.63 ms

Epoch: 1
Train :: Loss: 2.29 | Accy: 10.42
Valid :: Loss: 2.27 | Accy: 12.57
Saving..
'run_epoch'  956.94 ms

Epoch: 2
Train :: Loss: 2.22 | Accy: 17.26
Valid :: Loss: 2.15 | Accy: 20.14
…
